model/model.tflite (tflite, 12380 bytes, 8 tensors)

sequential/conv2d/Conv2D/ReadVariableOp f4 [1, 4, 3, 8]
0	0xbe13044b	-0.14357106
1	0x3ee43ec9	0.4457915
2	0xbdea4084	-0.11438087
3	0x3e82042d	0.2539381
4	0xbe8462bc	-0.25856578
5	0xbeedcec8	-0.46446824
6	0xbe8e3df6	-0.27781647
7	0xbd97ee4a	-0.07418497
8	0xbd4e193f	-0.050317045
9	0x3e818244	0.25294697
10	0xbe76906c	-0.2407853
11	0xbe39119d	-0.18073125
12	0xbde2e1f2	-0.11078252
13	0xbeaab482	-0.33340842
14	0x3d2159dd	0.03939234
15	0xbd27b4af	-0.040943798
16	0xbdaa2df9	-0.0830955
17	0xbf0cf9cd	-0.55068666
18	0xbc4255b8	-0.011861257
19	0x3db40631	0.087902434
20	0xbcc9e513	-0.024645364
21	0x3e1db24a	0.15400043
22	0x3ea6622b	0.3249677
23	0xbe885149	-0.26624516
24	0xbea64fb8	-0.32482696
25	0x3ec6896d	0.38776723
26	0xbeaf155a	-0.34195977
27	0x3e81db88	0.25362802
28	0x3f47501a	0.778566
29	0x3ef3628a	0.47536117
30	0x3c462748	0.012094326
31	0xbe0f19f6	-0.13974747
32	0xbe2f1e0d	-0.17101307
33	0xbce2a989	-0.027668731
34	0x3ec0e108	0.37671685
35	0x3ce9ecae	0.02855524
36	0xbd1419b4	-0.036157325
37	0x3e5b29a8	0.2140261
38	0xbe1c8908	-0.15286648
39	0xbcb0d3d1	-0.021585377
40	0xbd5f253b	-0.054478865
41	0xbe830946	-0.25593013
42	0x3e3bad32	0.18327788
43	0xbe541a99	-0.20713271
44	0xbe6c73ef	-0.230911
45	0x3de990ef	0.11404597
46	0x3d2773c3	0.040881883
47	0xbe935f24	-0.28783524
48	0xbe248dc3	-0.16069703
49	0x3d0846a0	0.03327048
50	0x3e82a475	0.25516096
51	0xbea9de87	-0.33177587
52	0x3ee4ebe7	0.4471123
53	0x3df5e4a1	0.12006498
54	0x3db430ee	0.08798395
55	0xbc829876	-0.01594184
56	0xbda74121	-0.08166719
57	0xbe19644c	-0.14979666
58	0xbef05d6b	-0.46946272
59	0xbe73d85d	-0.23813005
60	0x3cd6a093	0.026199615
61	0x3e1b5712	0.15169933
62	0xbd650797	-0.05591544
63	0x3c93d3ac	0.018045269
64	0x3e2d473f	0.1692171
65	0x3c54a8be	0.012979684
66	0xbe9c334d	-0.3050789
67	0xbd4b5281	-0.04963923
68	0xbdbda01f	-0.09259056
69	0xbe60a3f5	-0.21937545
70	0xbda36961	-0.07979084
71	0xbef320a9	-0.47485855
72	0xbe04a46a	-0.12953344
73	0xbc2963b6	-0.010338714
74	0xbeacba6f	-0.33735988
75	0xbf184b4c	-0.59489894
76	0x3d0cc9d7	0.034372177
77	0x3cf27315	0.029595891
78	0x3e030cf9	0.12797917
79	0xbea058d2	-0.31317765
80	0xbdb93e44	-0.09045079
81	0xbe4c0f6b	-0.19927756
82	0x3de37032	0.11105384
83	0xbed4029b	-0.41408238
84	0x3d4e7d19	0.05041227
85	0xbc57a8ae	-0.013162775
86	0x3ce817e6	0.028331708
87	0x3c9bf2ba	0.01903664
88	0x3dd1fbdd	0.10253117
89	0x3ea89800	0.32928467
90	0x3ce4c0f8	0.027924046
91	0x3c2408d5	0.010011871
92	0xbd51ab24	-0.051188603
93	0x3da7f42d	0.0820087
94	0xbe42cee4	-0.19024235
95	0xbf13c9d1	-0.5772982

sequential/conv2d/Conv2D_bias f4 [8]
0	0xbfce29cc	-1.6106505
1	0xbfed5b9b	-1.8543581
2	0xbe1f9bce	-0.15586779
3	0xbedf56cc	-0.43620908
4	0xbed99057	-0.42492935
5	0xbf9a6a61	-1.2063714
6	0xc002d122	-2.0440145
7	0xbf8cab51	-1.0989782

sequential/conv2d_1/Conv2D/ReadVariableOp f4 [16, 4, 1, 8]
0	0xbf25b1f7	-0.6472468
1	0xbebd90b6	-0.37024468
2	0xbdb0ea1a	-0.08638401
3	0xbf3f0104	-0.74610925
4	0xbdac3e02	-0.084102646
5	0xbd356331	-0.04428405
6	0x3cfb513a	0.03067838
7	0xbf0956b8	-0.5364795
8	0xbe1c1c41	-0.15245153
9	0x3d495552	0.049153633
10	0xbe4101f7	-0.18848406
11	0xbf922215	-1.1416651
12	0x3e7bdda1	0.24596263
13	0x3e726095	0.23669656
14	0xbdb6fde8	-0.089351475
15	0xbf126b03	-0.57194537
16	0xbe81cd30	-0.25351858
17	0x3e8df4dd	0.27725878
18	0xbf0489e0	-0.5177288
19	0xbf8469cc	-1.0344787
20	0x3ec555fc	0.38542163
21	0x3b308ab6	0.0026938147
22	0xbc86b646	-0.016444337
23	0xbf4645a7	-0.7745003
24	0xbdadb467	-0.08481675
25	0xbb14a1f8	-0.0022679549
26	0x3e930737	0.28716442
27	0xbf692a54	-0.9108021
28	0x3e0896b1	0.13338734
29	0x3c511f83	0.012763861
30	0xbdcc5752	-0.099775925
31	0xbf188351	-0.5957537
32	0xbd0ece50	-0.034864724
33	0xbda1c080	-0.078980446
34	0x3e31a6c7	0.17348777
35	0xbd36b5f4	-0.044607118
36	0x3b84adba	0.00404903
37	0x3eecfb57	0.46285507
38	0x3d63f7e8	0.055656344
39	0xbdad3cb1	-0.084588416
40	0xbdb73cd7	-0.08947151
41	0xbe0df11c	-0.13861507
42	0x3ec376b8	0.38176513
43	0xbdfa3506	-0.12217145
44	0xbdae17d4	-0.085006386
45	0xbd69594b	-0.056969922
46	0xbd9a8277	-0.075444154
47	0xbe1b4caa	-0.15165964
48	0xbd902518	-0.07038325
49	0xbd62ab91	-0.0553394
50	0x3d3a4a96	0.045481287
51	0x3c177dce	0.009246303
52	0xbca916ee	-0.020640817
53	0xbd277c58	-0.040890068
54	0xbc84f64c	-0.016230725
55	0xbe14294f	-0.14468883
56	0xbd280e5f	-0.04102933
57	0xbe81713f	-0.25281712
58	0x3df7f2c0	0.12106848
59	0x3c944e7d	0.018103832
60	0xbca0193b	-0.01954328
61	0xbd42755c	-0.047475204
62	0xbddceeb3	-0.10787716
63	0xbd117cc5	-0.03551938
64	0x3c9384a2	0.01800758
65	0x3e0f12a1	0.1397195
66	0x3f2037de	0.62585247
67	0xbe1e00dc	-0.15430015
68	0x3daa136d	0.083044864
69	0x3d0abd8e	0.03387218
70	0x3de966b0	0.11396539
71	0xbdbbbe93	-0.091672085
72	0xbd778c21	-0.06043637
73	0xbf24da4c	-0.64395595
74	0x3e1ca491	0.15297152
75	0xbeb30a48	-0.3496878
76	0xbe600c37	-0.2187966
77	0x3ca71e47	0.02040018
78	0x3dd186da	0.10230799
79	0xbe15969d	-0.14608236
80	0xbde654a5	-0.112466134
81	0xbe813bf4	-0.25241053
82	0xbcaeb8f6	-0.02132843
83	0xbe9be9d7	-0.30451843
84	0xbd5bee57	-0.053694095
85	0x3c837aea	0.01604982
86	0x3dbb51a4	0.09146431
87	0x3ce7945b	0.028268984
88	0xbe0bdd96	-0.13658747
89	0xbea01adb	-0.3127049
90	0x3e9acafa	0.30232984
91	0xbec59751	-0.38592008
92	0xbd18bb56	-0.037288032
93	0x3db0d42e	0.0863422
94	0xbd9ea1bd	-0.07745693
95	0xbd076e78	-0.033064336
96	0xbde6d5b2	-0.11271228
97	0xbea6ea30	-0.32600546
98	0xbe1e2662	-0.1544433
99	0x3db166e1	0.08662201
100	0xbea980a8	-0.3310597
101	0xbe8a2557	-0.26981613
102	0xbe457072	-0.19281176
103	0xbe4c3a23	-0.19944052
104	0xbeb87ac3	-0.3603116
105	0xbc96a143	-0.018387442
106	0xbe9d4b02	-0.3072129
107	0xbe91ac1d	-0.28451625
108	0xbeb2d18b	-0.34925494
109	0xbe753d73	-0.23949222
110	0x3e017659	0.12642802
111	0xbde12117	-0.109926395
112	0xbe4fac61	-0.20280601
113	0xbe9b611c	-0.30347526
114	0xbe091171	-0.1338556
115	0x3d9b8835	0.07594339
116	0xbed8a542	-0.42313582
117	0xbd654040	-0.055969477
118	0xbe28d446	-0.16487226
119	0x3d52acc0	0.05143428
120	0xb82fa0cb	-4.1873e-05
121	0x3b0c1585	0.0021375131
122	0xbe562750	-0.20913434
123	0x3d359c42	0.044338472
124	0xbdb8031f	-0.0898497
125	0x3bb9600c	0.0056572016
126	0xbd150ac9	-0.03638724
127	0x3e31a1f4	0.17346936
128	0xbc72e8da	-0.014826024
129	0xbea5d429	-0.32388428
130	0xbe98d725	-0.29851642
131	0xbe913568	-0.28361058
132	0xbda865b8	-0.08222526
133	0xbd60c03b	-0.054870825
134	0x3d580ff2	0.05274958
135	0xbbf2c213	-0.0074083894
136	0xbe6bf0eb	-0.23041122
137	0xbdef305f	-0.11679148
138	0xbefc6b68	-0.49300694
139	0xbea8dc3c	-0.32980525
140	0x3e260491	0.1621268
141	0x3c5aa671	0.013345347
142	0x3e497cee	0.19676563
143	0x3e5bdb1a	0.214703
144	0xbe4cc5af	-0.19997285
145	0x3ef2443c	0.47317684
146	0xbe8aa885	-0.27081695
147	0x3d82f0d4	0.063935906
148	0xbd80ced0	-0.06289446
149	0xbd81aaea	-0.063314274
150	0xbe1d84de	-0.15382716
151	0x3dfe59e1	0.12419487
152	0xba84f4a3	-0.0010143708
153	0x3f18933b	0.59599656
154	0x3e5f1ced	0.21788378
155	0x3e6d05c2	0.23146728
156	0xbe74b253	-0.2389615
157	0xbdfad3d0	-0.12247431
158	0xbebdee23	-0.37095746
159	0xbdb95d35	-0.09050981
160	0xbe2e505b	-0.1702284
161	0xbdba1832	-0.09086646
162	0xbb3d5393	-0.0028888925
163	0xbe117387	-0.14204226
164	0xbdb7b445	-0.089699306
165	0xbe86d504	-0.26334393
166	0xbd7718b5	-0.060326297
167	0xbd981ecd	-0.0742775
168	0xbdcf2823	-0.10115077
169	0xbe2bfe64	-0.16796261
170	0xbcded08b	-0.02719905
171	0xbe97427c	-0.2954291
172	0xbe037bc4	-0.12840182
173	0xbe8a26a4	-0.26982605
174	0xbe7d32dd	-0.24726434
175	0xbdfc4602	-0.123180404
176	0xbd1d3fd1	-0.03839094
177	0xbea7c462	-0.32767016
178	0xbd5750f3	-0.052567434
179	0x3c5c6538	0.013451867
180	0x3e36d34b	0.1785404
181	0xbe3a968e	-0.18221495
182	0x3dce47ea	0.1007231
183	0x3e14e3cb	0.14540021
184	0xbe505266	-0.20343933
185	0x3c9b804e	0.018982079
186	0xbdad16cb	-0.08451613
187	0xbcf990ee	-0.030464616
188	0xbdd27ee1	-0.102781065
189	0x3d4e55a5	0.050374646
190	0x3dea3216	0.114353344
191	0xbe4e577d	-0.20150562
192	0xbe0594b1	-0.13045003
193	0xbe9fed4b	-0.31235728
194	0xbe570f28	-0.21001875
195	0xbdf6f76e	-0.12058912
196	0xbc723061	-0.014782042
197	0xbcb05a9f	-0.021527587
198	0xbe9729a7	-0.29523966
199	0xbe35e000	-0.1776123
200	0xbe160c1c	-0.14653057
201	0x3d70b9e0	0.058771014
202	0xbe4d3cf2	-0.2004278
203	0xbf05519f	-0.5207767
204	0xbe6d2411	-0.2315829
205	0x3cf58261	0.029969396
206	0xbe32f6d8	-0.17476976
207	0xbd29238e	-0.041293673
208	0xbe6563d0	-0.22401357
209	0xbe80d049	-0.2515891
210	0xbeaa0582	-0.33207327
211	0xbe0ae962	-0.13565591
212	0x3c406c11	0.011744515
213	0xbcc4ed1d	-0.024038846
214	0x3eb5fd75	0.35544935
215	0x3e95040d	0.29104653
216	0xbe187ea2	-0.14892057
217	0x3daab367	0.083349995
218	0xbe0c0832	-0.13675001
219	0x3ea4b95b	0.32172665
220	0xbdcd4a8e	-0.10023986
221	0x3e2a984e	0.16659662
222	0x3e5feb67	0.21867143
223	0x3e5cf3d2	0.21577385
224	0xbe3cd067	-0.18438874
225	0x3e831d1e	0.25608152
226	0x3e872e31	0.2640243
227	0xbd355ce9	-0.04427806
228	0x3edf0a4d	0.43562546
229	0xbdabfd51	-0.08397926
230	0x3dcd4b27	0.100241
231	0x3e9904d1	0.29886487
232	0xbe922f1b	-0.28551564
233	0x3dd2a5eb	0.102855526
234	0x3cd3fa55	0.025876204
235	0xbe6898c1	-0.22714521
236	0xbca1398d	-0.019680763
237	0xbc3631b0	-0.011120245
238	0xbd48d27b	-0.049028855
239	0xbd70a9d4	-0.05875571
240	0xbec0c91e	-0.3765344
241	0x3d75bf24	0.05999674
242	0x3dd4aabb	0.10384127
243	0x3d781fac	0.06057708
244	0x3cc5ec2b	0.024160465
245	0xbcd26284	-0.025681742
246	0xbd04cbab	-0.032420795
247	0xbd3d7b6e	-0.04626029
248	0xbea9889e	-0.33112043
249	0xbe35ef76	-0.17767128
250	0x3cf4dcf8	0.029890522
251	0xbe754de7	-0.23955499
252	0x3c67d58a	0.014150033
253	0xbd64dda1	-0.055875424
254	0x3d2fe2a7	0.042940762
255	0xbe03110e	-0.12799475

sequential/conv2d_1/Conv2D_bias f4 [16]
0	0x3f1c7abb	0.6112477
1	0xbf0b2925	-0.54359657
2	0x3c283843	0.01026732
3	0xbe2feb0f	-0.17179511
4	0xbf608908	-0.87709093
5	0xbe1cc55f	-0.15309666
6	0xbe09ac53	-0.13444643
7	0x3e583515	0.21113999
8	0xbc91eb42	-0.017812375
9	0xbf3450e1	-0.7043591
10	0xbe8435cd	-0.25822297
11	0xbefa2a0b	-0.488602
12	0xbf153869	-0.582892
13	0xbe52f105	-0.20599754
14	0xbe4b0d68	-0.19829333
15	0xbf082dbd	-0.5319479

sequential/dense/MatMul/ReadVariableOp/transpose f4 [16, 112]
0	0x3d264e20	0.04060185
1	0x3d2ce64e	0.042211823
2	0x3af20ffe	0.0018467901
3	0xbcbc9fef	-0.023025481
4	0x3db4dfe7	0.088317685
5	0x3e7460ed	0.23865099
6	0xbe4f8b74	-0.20268041
7	0xbe1b6b2d	-0.15177603
8	0xbe5499fa	-0.20761862
9	0xbeb6c110	-0.3569417
10	0x3e0988ca	0.13431087
11	0xbdbd80ce	-0.09253083
12	0xbe97f4ab	-0.29678854
13	0xbef39778	-0.475765
14	0x3d95bdf7	0.073116235
15	0xbe9d6251	-0.30739072
16	0xbdf270e3	-0.11837938
17	0x3d9d0665	0.07667235
18	0x3d7c40be	0.06158518
19	0x3e40e57c	0.18837541
20	0xbe4e85e8	-0.20168269
21	0x3e750ce5	0.239307
22	0x3e343a0f	0.17600273
23	0xbd0a7bfa	-0.03380964
24	0xbe990025	-0.29882923
25	0xbdf36f41	-0.118864544
26	0x3d8e0801	0.069351204
27	0xbd8a7286	-0.06760125
28	0xbe2cbc05	-0.16868599
29	0x3d4fc138	0.050721377
30	0x3d8e31d3	0.06943097
31	0xbda8edbd	-0.0824847
32	0xbe38a28a	-0.18030754
33	0x3d0242f2	0.031802125
34	0x3a545856	0.0008100321
35	0xbd3cba71	-0.046076242
36	0x3e2094d3	0.15681772
37	0x3cd435e4	0.025904603
38	0x3e371d50	0.17882276
39	0xbe2e51e7	-0.17023431
40	0x3e9921ca	0.29908592
41	0xbc068d46	-0.008212393
42	0x3d4a3c97	0.04937419
43	0xbe776825	-0.24160822
44	0xbd8f6bf0	-0.07003009
45	0x3b3c199e	0.0028701792
46	0xbce8a94f	-0.028401045
47	0x3db6fa5a	0.089344695
48	0xbeabbde2	-0.33543307
49	0xbd665893	-0.056236815
50	0x3dccd540	0.10001612
51	0x3ae76b79	0.0017655931
52	0x3e8a6ef0	0.27037764
53	0xbe14be6e	-0.14525768
54	0x3e94c2f9	0.29055002
55	0xbe07e607	-0.13271342
56	0xbcbfffef	-0.023437468
57	0xbdda58ed	-0.106614925
58	0x3df1d696	0.11808507
59	0xbe1e3970	-0.15451598
60	0x3d7d95af	0.061910328
61	0xbe2d1622	-0.16902974
62	0xbbca9b86	-0.0061830906
63	0x3d875feb	0.06610092
64	0xbe488e21	-0.19585468
65	0x3dbf6963	0.09346273
66	0x3dbb01f2	0.091312304
67	0x3dd7286c	0.10505757
68	0x3e6e4557	0.23268639
69	0xbd344f37	-0.044020858
70	0x3e3d6e39	0.18499078
71	0xbe9d0433	-0.30667266
72	0x3cf37077	0.029716713
73	0xbd8219ce	-0.06352578
74	0x3dd8b3ab	0.10581144
75	0x3c5db2ef	0.013531431
76	0xbdb7f83a	-0.08982892
77	0xbe52c9be	-0.20584771
78	0x3d5f97d9	0.054588173
79	0x3d4fd136	0.05073663
80	0xbe2d0d09	-0.16899504
81	0xbdc56f2c	-0.09640345
82	0xbd452b85	-0.048137207
83	0xb99d0db7	-0.00029955592
84	0x3e8228d7	0.25421783
85	0x3db58135	0.08862535
86	0x3e99695d	0.29963198
87	0xbe2e31b7	-0.17011152
88	0x3e716783	0.23574643
89	0xbe3a5f47	-0.18200408
90	0xbdd76d89	-0.10518939
91	0x3d865069	0.06558306
92	0xbe595f0c	-0.21227664
93	0xbf13580a	-0.5755621
94	0x3d0172a3	0.031603467
95	0x3c994ff3	0.01871488
96	0x3cb2fe76	0.021849852
97	0x3def4bf1	0.116844065
98	0xbce9e452	-0.028551254
99	0xbd6ae5b6	-0.057347976
100	0x3e70696a	0.23477712
101	0x3e485221	0.1956258
102	0x3d6a5f5f	0.05721986
103	0xbe2a85a9	-0.1665255
104	0x3c00571b	0.007833268
105	0xbeb87c88	-0.3603251
106	0xbd99294e	-0.07478581
107	0x3d804851	0.06263793
108	0xbdcc486a	-0.099747494
109	0xbec08207	-0.37599203
110	0x3dfb31f9	0.12265391
111	0xbed8be6c	-0.4233278
112	0x3e83707d	0.2567176
113	0x3cb81d98	0.022475049
114	0xbe80fa36	-0.25190896
115	0x3d9ebfd5	0.07751433
116	0x3e0cecd4	0.13762218
117	0xbe09d203	-0.1345902
118	0xbbeb81b5	-0.007187093
119	0x3eb0e570	0.34550047
120	0x3efe71ff	0.49696347
121	0xbd369bcf	-0.044582184
122	0x3d61df78	0.055144757
123	0x3e839c8d	0.25705376
124	0xbe29f1e7	-0.16596185
125	0x3b39b01a	0.0028333724
126	0x3e445427	0.19172727
127	0x3e518a4a	0.2046291
128	0x3d4f499d	0.050607312
129	0xbe03c21d	-0.12867017
130	0xbd877939	-0.06614918
131	0xbe4cc6a3	-0.19997649
132	0xbde35946	-0.11101012
133	0x3d0e3025	0.034713883
134	0xbe06e624	-0.13173729
135	0xbd49fc15	-0.04931267
136	0x3e451753	0.19247179
137	0x3d3fa87a	0.04679153
138	0xbba7082c	-0.0050974097
139	0x3e4bdfb5	0.19909556
140	0xbf82aa83	-1.0208286
141	0x3de6d616	0.112713024
142	0xbd32ca47	-0.043649938
143	0x3e5c4296	0.21509776
144	0xbda3d593	-0.079997204
145	0xbdc75355	-0.09732691
146	0xbdfdb8bc	-0.12388751
147	0xbe40c667	-0.18825684
148	0xbe8f1595	-0.27946153
149	0xbe2c0b2f	-0.16801141
150	0xbe9cbc06	-0.306122
151	0xbce2e363	-0.027696317
152	0xbe4c5e1c	-0.19957775
153	0x3d111cde	0.03542792
154	0xbdce3d13	-0.10070243
155	0x3df0c523	0.11756351
156	0x3cdba4da	0.026812006
157	0x3e829a0c	0.25508153
158	0x3d91dbbd	0.0712199
159	0x3bb7ea9d	0.005612685
160	0xbda326ee	-0.079664096
161	0xbe164bf3	-0.1467741
162	0x3c0092d2	0.007847505
163	0xbd1cb45f	-0.038257953
164	0xbe735754	-0.23763782
165	0x3b0aa741	0.002115682
166	0xbd118ae4	-0.035532847
167	0x3e74854f	0.23878978
168	0xbca3e56e	-0.020006862
169	0xbaa0af64	-0.0012259302
170	0xbe0e78c4	-0.13913256
171	0x3e29b6ed	0.16573687
172	0x3e9488cc	0.29010618
173	0x3e1a4591	0.150656
174	0x3d0eabdb	0.034831863
175	0x3dfe6eab	0.12423452
176	0xbe6e64a7	-0.23280583
177	0x3d7f1ad3	0.06228144
178	0xbd76ec72	-0.060284086
179	0xbdb236ad	-0.08701835
180	0xbe6d0e4d	-0.23149987
181	0xbe3a11f5	-0.18170913
182	0xbe9984a7	-0.29984018
183	0x3ee96a68	0.45588994
184	0x3e20fe4a	0.15722004
185	0xbe084689	-0.13308157
186	0xbdeb1dda	-0.11480303
187	0x3d8a40a2	0.06750609
188	0x3dd481fd	0.10376356
189	0xbd2031fb	-0.039110165
190	0xbe3efbf5	-0.18650801
191	0x3d421494	0.047382906
192	0x3df8a320	0.121404886
193	0xbc5703e5	-0.013123487
194	0xbeddcf78	-0.4332235
195	0xbd36f7db	-0.044669967
196	0xbdd2b5a1	-0.10288549
197	0x3daa0bc0	0.083030224
198	0xbe88ec34	-0.2674271
199	0x3dde1376	0.10843556
200	0xbd127950	-0.035760224
201	0x3e48cb2e	0.19608757
202	0xbcae55ef	-0.02128121
203	0xbd897416	-0.06711595
204	0xbea14ca8	-0.31503797
205	0x3e472956	0.19449362
206	0x3cf69a13	0.030102765
207	0xbc175b8e	-0.009238137
208	0xbcf98e67	-0.03046341
209	0xbec8995c	-0.39179504
210	0xbd1d4bd1	-0.038402382
211	0x3e52b6d0	0.2057755
212	0xbe5f89dc	-0.21829933
213	0x3d9eadc1	0.07747985
214	0xbe0ce66e	-0.13759777
215	0xbdf3dffe	-0.119079575
216	0x3d8c6199	0.06854553
217	0xbc49c9f0	-0.012316212
218	0xbe5bbbf4	-0.21458417
219	0x3d2fc489	0.04291204
220	0xbdc1627b	-0.09442612
221	0x3e3db20c	0.1852495
222	0x3dac7335	0.084204115
223	0x3d83c584	0.064341575
224	0xbebd0b93	-0.36922893
225	0xbdda4428	-0.10657531
226	0x3e8380e6	0.2568428
227	0xbd7fcc44	-0.062450662
228	0xbdd00996	-0.10158078
229	0x3de2078d	0.110365964
230	0x3ddbaa52	0.107258454
231	0xbd4594c3	-0.048237573
232	0xbeb7bf94	-0.3588835
233	0xbe94f5b8	-0.2909372
234	0xbdab818c	-0.083743185
235	0xbe5647ec	-0.20925874
236	0x3dc95e98	0.098324955
237	0xbe96f2c0	-0.2948208
238	0xbec442c6	-0.38332194
239	0xbda339e7	-0.07970028
240	0x3e913505	0.28360763
241	0x3e9ccd78	0.3062551
242	0x3e407d61	0.18797828
243	0x3dfcff03	0.12353327
244	0xbd30f152	-0.04319889
245	0x3e9e1dc5	0.30882087
246	0xbe27c686	-0.16384324
247	0xbd8b0c7f	-0.06789493
248	0x3dffdf9c	0.12493822
249	0xbda79b2f	-0.08183896
250	0x3d4cbd70	0.04998535
251	0xbd9d4d79	-0.07680792
252	0xbe1b32a0	-0.1515603
253	0x3eda1200	0.42591858
254	0xbe2e2a33	-0.17008285
255	0xbe3aafaf	-0.1823108

sequential/dense/MatMul_bias f4 [16]
0	0xbef83206	-0.48475665
1	0xbf952afe	-1.1653745
2	0xbcf22826	-0.02956016
3	0x3f2fa95b	0.6861779
4	0xbc142ab2	-0.0090433825
5	0xbfa81a46	-1.3133018
6	0x3f0aa795	0.5416196
7	0xbe958e8d	-0.2921032
8	0xbf868783	-1.0510105
9	0xbf11784e	-0.56824195
10	0xbf926947	-1.1438378
11	0x3f6e8d81	0.9318467
12	0x3d31fec3	0.04345585
13	0xbee744f1	-0.45169786
14	0xbfb2ff45	-1.3984152
15	0xbe93e8e7	-0.28888628

sequential/dense_1/MatMul/ReadVariableOp/transpose f4 [3, 16]
0	0x3d6acec8	0.05732611
1	0xbdc6bd91	-0.09704126
2	0x3e524b77	0.205366
3	0xbd2728b2	-0.040810294
4	0x3ca8024b	0.020508906
5	0x3d073ce8	0.03301707
6	0x3e347f5e	0.17626712
7	0x3ead3142	0.33826643
8	0xbe39c820	-0.18142748
9	0xbe123b10	-0.14280343
10	0x3e23b449	0.15986742
11	0xbe1a72d9	-0.15082873
12	0x3eb5cead	0.35509244
13	0x3e653493	0.22383337
14	0xbe234a49	-0.15946306
15	0x3e3f00a9	0.18652596
16	0x3dfbcd6e	0.12295042
17	0xbd89dce8	-0.06731588
18	0x3decb788	0.11558443
19	0x3e2c4c9a	0.16826096
20	0xbda74688	-0.0816775
21	0xb9caba9a	-0.0003866747
22	0x3dff42b3	0.12463894
23	0x3eeddf7e	0.46459574
24	0xbdf0b435	-0.11753122
25	0x3c8fc9dc	0.017552309
26	0x3e493d29	0.19652237
27	0x3dbb9af2	0.09160413
28	0x3e7513ac	0.23933285
29	0x3e0daf1f	0.13836335
30	0xbd1f5ae7	-0.03890505
31	0x3e614e10	0.22002435
32	0x3c762110	0.015022531
33	0x3bb6c8e5	0.0055781477
34	0x3e0c606a	0.13708654
35	0x3dee7952	0.11644234
36	0xbd1f7053	-0.03892548
37	0x3d9d0282	0.07666494
38	0x3d86b3e7	0.065772824
39	0x3ef3c770	0.47613096
40	0xbd677bef	-0.056514677
41	0xbda8139e	-0.08206867
42	0x3e75f99b	0.24020998
43	0x3d18491f	0.03717911
44	0x3e96d1dd	0.29456988
45	0x3e6ec039	0.23315515
46	0xbca9b6ca	-0.020717043
47	0x3d705a42	0.058679827

sequential/dense_1/MatMul_bias f4 [3]
0	0x3e839791	0.25701573
1	0x3f002416	0.5005506
2	0xbf767772	-0.9627601
